pytorch_code/net_params.pkl (torch_old, 902 bytes, 3 tensors)

0.weight f4 [10, 1]
0	0xbef49b2c	-0.47774637
1	0xbf1b8d4a	-0.60762465
2	0xbdde7260	-0.10861659
3	0xbf065f8b	-0.52489537
4	0x3ed88214	0.42286742
5	0xbf9f9e74	-1.2470231
6	0xbee861a1	-0.45386985
7	0xbf52abbc	-0.82293296
8	0xbe501b0a	-0.20322815
9	0x3f506efc	0.8141935

0.bias f4 [10]
0	0x3edf1398	0.43569636
1	0xbd9a5295	-0.075352825
2	0xbec1c4f4	-0.37845576
3	0xbe4b20c0	-0.19836712
4	0xbf7655b6	-0.96224535
5	0xbee4191e	-0.44550413
6	0x3ed3ca4a	0.41365272
7	0xbf7a0ff4	-0.9768059
8	0xbd9883c9	-0.07447011
9	0xbf6a3680	-0.9148941

2.weight f4 [1, 10]
0	0xbf06b420	-0.526186
1	0x3e036ece	0.12835237
2	0xbe28e526	-0.16493663
3	0x3ec393cd	0.381987
4	0xbd874a8c	-0.066060156
5	0x3f47cf31	0.78050524
6	0xbef1743e	-0.47158998
7	0xbdaa0332	-0.08301391
8	0x3de54c62	0.111962095
9	0xbe692adb	-0.22770254
